…
      "outputs": [
        {
          "output_type": "stream",
          "name": "stdout",
          "text": [
            "Model: \"model\"\n",
            "_________________________________________________________________\n",
            " Layer (type)                Output Shape              Param #   \n",
            "=================================================================\n",
            " input_1 (InputLayer)        [(None, 64, 96, 1)]       0         \n",
            "                                                                 \n",
            " encode1 (Conv2D)            (None, 64, 96, 128)       2176      \n",
            "                                                                 \n",
            " encode2 (Conv2D)            (None, 64, 96, 64)        73792     \n",
            "                                                                 \n",
            " max_pooling2d (MaxPooling2D  (None, 32, 48, 64)       0         \n",
            " )                                                               \n",
            "                                                                 \n",
            " encode3 (Conv2D)            (None, 32, 48, 64)        36928     \n",
            "                                                                 \n",
            " encode4 (Conv2D)            (None, 32, 48, 32)        8224      \n",
            "                                                                 \n",
            " max_pooling2d_1 (MaxPooling  (None, 16, 24, 32)       0         \n",
            " 2D)                                                             \n",
            "                                                                 \n",
            " encode5 (Conv2D)            (None, 16, 24, 64)        18496     \n",
            "                                                                 \n",
            " encode6 (Conv2D)            (None, 16, 24, 32)        8224      \n",
            "                                                                 \n",
            " max_pooling2d_2 (MaxPooling  (None, 8, 12, 32)        0         \n",
            " 2D)                                                             \n",
            "                                                                 \n",
            " encode7 (Conv2D)            (None, 8, 12, 64)         18496     \n",
            "                                                                 \n",
            " encode8 (Conv2D)            (None, 8, 12, 32)         8224      \n",
            "                                                                 \n",
            " max_pooling2d_3 (MaxPooling  (None, 4, 6, 32)         0         \n",
            " 2D)                                                             \n",
            "                                                                 \n",
            " encode9 (Conv2D)            (None, 4, 6, 32)          9248      \n",
            "                                                                 \n",
            " flatten (Flatten)           (None, 768)               0         \n",
            "                                                                 \n",
            " encode10 (Dense)            (None, 256)               196864    \n",
            "                                                                 \n",
            " encode11 (Dense)            (None, 128)               32896     \n",
            "                                                                 \n",
            "=================================================================\n",
            "Total params: 413,568\n",
            "Trainable params: 413,568\n",
            "Non-trainable params: 0\n",
            "_________________________________________________________________\n"
          ]
        }
…
      "outputs": [
        {
          "output_type": "stream",
          "name": "stdout",
          "text": [
            "Model: \"model_1\"\n",
            "_________________________________________________________________\n",
            " Layer (type)                Output Shape              Param #   \n",
            "=================================================================\n",
            " decoder (InputLayer)        [(None, 128)]             0         \n",
            "                                                                 \n",
            " decode1 (Dense)             (None, 256)               33024     \n",
            "                                                                 \n",
            " decode2 (Dense)             (None, 768)               197376    \n",
            "                                                                 \n",
            " reshape (Reshape)           (None, 4, 6, 32)          0         \n",
            "                                                                 \n",
            " decode3 (Conv2D)            (None, 4, 6, 32)          4128      \n",
            "                                                                 \n",
            " decode4 (Conv2D)            (None, 4, 6, 64)          18496     \n",
            "                                                                 \n",
            " up_sampling2d (UpSampling2D  (None, 8, 12, 64)        0         \n",
            " )                                                               \n",
            "                                                                 \n",
            " decode5 (Conv2D)            (None, 8, 12, 32)         8224      \n",
            "                                                                 \n",
            " decode6 (Conv2D)            (None, 8, 12, 64)         18496     \n",
            "                                                                 \n",
            " up_sampling2d_1 (UpSampling  (None, 16, 24, 64)       0         \n",
            " 2D)                                                             \n",
            "                                                                 \n",
            " decode7 (Conv2D)            (None, 16, 24, 64)        16448     \n",
            "                                                                 \n",
            " decode8 (Conv2D)            (None, 16, 24, 128)       73856     \n",
            "                                                                 \n",
            " up_sampling2d_2 (UpSampling  (None, 32, 48, 128)      0         \n",
            " 2D)                                                             \n",
            "                                                                 \n",
            " decode9 (Conv2D)            (None, 32, 48, 64)        32832     \n",
            "                                                                 \n",
            " decode10 (Conv2D)           (None, 32, 48, 64)        65600     \n",
            "                                                                 \n",
            " decode11 (Conv2D)           (None, 32, 48, 128)       73856     \n",
            "                                                                 \n",
            " up_sampling2d_3 (UpSampling  (None, 64, 96, 128)      0         \n",
            " 2D)                                                             \n",
            "                                                                 \n",
            " decode12 (Conv2D)           (None, 64, 96, 64)        131136    \n",
            "                                                                 \n",
            " decode13 (Conv2D)           (None, 64, 96, 32)        18464     \n",
            "                                                                 \n",
            " decode14 (Conv2D)           (None, 64, 96, 16)        2064      \n",
            "                                                                 \n",
            " decode15 (Conv2D)           (None, 64, 96, 1)         65        \n",
            "                                                                 \n",
            "=================================================================\n",
            "Total params: 694,065\n",
            "Trainable params: 694,065\n",
            "Non-trainable params: 0\n",
            "_________________________________________________________________\n"
          ]
        }
…
      "outputs": [
        {
          "output_type": "stream",
          "name": "stdout",
          "text": [
            "Model: \"model_2\"\n",
            "_________________________________________________________________\n",
            " Layer (type)                Output Shape              Param #   \n",
            "=================================================================\n",
            " input_2 (InputLayer)        [(None, 64, 96, 1)]       0         \n",
            "                                                                 \n",
            " encode1 (Conv2D)            (None, 64, 96, 128)       2176      \n",
            "                                                                 \n",
            " encode2 (Conv2D)            (None, 64, 96, 64)        73792     \n",
            "                                                                 \n",
            " max_pooling2d_4 (MaxPooling  (None, 32, 48, 64)       0         \n",
            " 2D)                                                             \n",
            "                                                                 \n",
            " encode3 (Conv2D)            (None, 32, 48, 64)        36928     \n",
            "                                                                 \n",
            " encode4 (Conv2D)            (None, 32, 48, 32)        8224      \n",
            "                                                                 \n",
            " max_pooling2d_5 (MaxPooling  (None, 16, 24, 32)       0         \n",
            " 2D)                                                             \n",
            "                                                                 \n",
            " encode5 (Conv2D)            (None, 16, 24, 64)        18496     \n",
            "                                                                 \n",
            " encode6 (Conv2D)            (None, 16, 24, 32)        8224      \n",
            "                                                                 \n",
            " max_pooling2d_6 (MaxPooling  (None, 8, 12, 32)        0         \n",
            " 2D)                                                             \n",
            "                                                                 \n",
            " encode7 (Conv2D)            (None, 8, 12, 64)         18496     \n",
            "                                                                 \n",
            " encode8 (Conv2D)            (None, 8, 12, 32)         8224      \n",
            "                                                                 \n",
            " max_pooling2d_7 (MaxPooling  (None, 4, 6, 32)         0         \n",
            " 2D)                                                             \n",
            "                                                                 \n",
            " encode9 (Conv2D)            (None, 4, 6, 32)          9248      \n",
            "                                                                 \n",
            " flatten_1 (Flatten)         (None, 768)               0         \n",
            "                                                                 \n",
            " encode10 (Dense)            (None, 256)               196864    \n",
            "                                                                 \n",
            " encode11 (Dense)            (None, 128)               32896     \n",
            "                                                                 \n",
            " decode1 (Dense)             (None, 256)               33024     \n",
            "                                                                 \n",
            " decode2 (Dense)             (None, 768)               197376    \n",
            "                                                                 \n",
            " reshape_1 (Reshape)         (None, 4, 6, 32)          0         \n",
            "                                                                 \n",
            " decode3 (Conv2D)            (None, 4, 6, 32)          4128      \n",
            "                                                                 \n",
            " decode4 (Conv2D)            (None, 4, 6, 64)          18496     \n",
            "                                                                 \n",
            " up_sampling2d_4 (UpSampling  (None, 8, 12, 64)        0         \n",
            " 2D)                                                             \n",
            "                                                                 \n",
            " decode5 (Conv2D)            (None, 8, 12, 32)         8224      \n",
            "                                                                 \n",
            " decode6 (Conv2D)            (None, 8, 12, 64)         18496     \n",
            "                                                                 \n",
            " up_sampling2d_5 (UpSampling  (None, 16, 24, 64)       0         \n",
            " 2D)                                                             \n",
            "                                                                 \n",
            " decode7 (Conv2D)            (None, 16, 24, 64)        16448     \n",
            "                                                                 \n",
            " decode8 (Conv2D)            (None, 16, 24, 128)       73856     \n",
            "                                                                 \n",
            " up_sampling2d_6 (UpSampling  (None, 32, 48, 128)      0         \n",
            " 2D)                                                             \n",
            "                                                                 \n",
            " decode9 (Conv2D)            (None, 32, 48, 64)        32832     \n",
            "                                                                 \n",
            " decode10 (Conv2D)           (None, 32, 48, 64)        65600     \n",
            "                                                                 \n",
            " decode11 (Conv2D)           (None, 32, 48, 128)       73856     \n",
            "                                                                 \n",
            " up_sampling2d_7 (UpSampling  (None, 64, 96, 128)      0         \n",
            " 2D)                                                             \n",
            "                                                                 \n",
            " decode12 (Conv2D)           (None, 64, 96, 64)        131136    \n",
            "                                                                 \n",
            " decode13 (Conv2D)           (None, 64, 96, 32)        18464     \n",
            "                                                                 \n",
            " decode14 (Conv2D)           (None, 64, 96, 16)        2064      \n",
            "                                                                 \n",
            " decode15 (Conv2D)           (None, 64, 96, 1)         65        \n",
            "                                                                 \n",
            "=================================================================\n",
            "Total params: 1,107,633\n",
            "Trainable params: 1,107,633\n",
            "Non-trainable params: 0\n",
            "_________________________________________________________________\n"
          ]
        }
…
